…
            (6): Parameter containing: [torch.float32 of size 30x5x4x30]
            (7): Parameter containing: [torch.float32 of size 30x5x4x30]
            (8): Parameter containing: [torch.float32 of size 30x4x4x30]
            (9): Parameter containing: [torch.float32 of size 30x8x3x1]
            (10): Parameter containing: [torch.float32 of size 30]
            (11): Parameter containing: [torch.float32 of size 30]
            (12): Parameter containing: [torch.float32 of size 30]
            (13): Parameter containing: [torch.float32 of size 30]
        )
      )
    )
    (position_enc): Embedding(512, 768)
    (token_type_emb): Embedding(2, 768)
    (dropout): Dropout(p=0.1, inplace=False)
    (layer_stack): ModuleList(
      (0): EncoderLayer(
        (slf_attn): Tensor_Attention(
          (w_qs): TensorizedLinear_module(
            (tt_cores): ModuleList(
              (0): Linear(in_features=240, out_features=8, bias=False)
              (1): Linear(in_features=160, out_features=160, bias=False)
              (2): Linear(in_features=8, out_features=240, bias=False)
            )
          )
          (w_ks): TensorizedLinear_module(
            (tt_cores): ModuleList(
              (0): Linear(in_features=240, out_features=8, bias=False)
              (1): Linear(in_features=160, out_features=160, bias=False)
              (2): Linear(in_features=8, out_features=240, bias=False)
            )
          )
          (w_vs): TensorizedLinear_module(
            (tt_cores): ModuleList(
              (0): Linear(in_features=240, out_features=8, bias=False)
              (1): Linear(in_features=160, out_features=160, bias=False)
              (2): Linear(in_features=8, out_features=240, bias=False)
            )
          )
          (fc): TensorizedLinear_module(
            (tt_cores): ModuleList(
              (0): Linear(in_features=240, out_features=8, bias=False)
              (1): Linear(in_features=160, out_features=160, bias=False)
              (2): Linear(in_features=8, out_features=240, bias=False)
            )
          )
          (attention): ScaledDotProductAttention(
            (dropout): Dropout(p=0.1, inplace=False)
          )
          (dropout): Dropout(p=0.1, inplace=False)
          (layer_norm): LayerNorm((768,), eps=1e-12, elementwise_affine=True)
        )
        (pos_ffn): Tensor_PFF(
          (fc_1): TensorizedLinear_module(
            (tt_cores): ModuleList(
              (0): Linear(in_features=240, out_features=12, bias=False)
              (1): Linear(in_features=160, out_features=320, bias=False)
              (2): Linear(in_features=8, out_features=320, bias=False)
            )
          )
          (fc_2): TensorizedLinear_module(
            (tt_cores): ModuleList(
              (0): Linear(in_features=320, out_features=8, bias=False)
              (1): Linear(in_features=320, out_features=160, bias=False)
              (2): Linear(in_features=12, out_features=240, bias=False)
            )
          )
          (relu): GELU(approximate='none')
          (layer_norm): LayerNorm((768,), eps=1e-12, elementwise_affine=True)
          (dropout): Dropout(p=0.1, inplace=False)
        )
      )
      (1): EncoderLayer(
        (slf_attn): Tensor_Attention(
          (w_qs): TensorizedLinear_module(
            (tt_cores): ModuleList(
              (0): Linear(in_features=240, out_features=8, bias=False)
              (1): Linear(in_features=160, out_features=160, bias=False)
              (2): Linear(in_features=8, out_features=240, bias=False)
            )
          )
          (w_ks): TensorizedLinear_module(
            (tt_cores): ModuleList(
              (0): Linear(in_features=240, out_features=8, bias=False)
              (1): Linear(in_features=160, out_features=160, bias=False)
              (2): Linear(in_features=8, out_features=240, bias=False)
            )
          )
          (w_vs): TensorizedLinear_module(
            (tt_cores): ModuleList(
              (0): Linear(in_features=240, out_features=8, bias=False)
              (1): Linear(in_features=160, out_features=160, bias=False)
              (2): Linear(in_features=8, out_features=240, bias=False)
            )
          )
          (fc): TensorizedLinear_module(
            (tt_cores): ModuleList(
              (0): Linear(in_features=240, out_features=8, bias=False)
              (1): Linear(in_features=160, out_features=160, bias=False)
              (2): Linear(in_features=8, out_features=240, bias=False)
            )
          )
          (attention): ScaledDotProductAttention(
            (dropout): Dropout(p=0.1, inplace=False)
          )
          (dropout): Dropout(p=0.1, inplace=False)
          (layer_norm): LayerNorm((768,), eps=1e-12, elementwise_affine=True)
        )
        (pos_ffn): Tensor_PFF(
          (fc_1): TensorizedLinear_module(
            (tt_cores): ModuleList(
              (0): Linear(in_features=240, out_features=12, bias=False)
              (1): Linear(in_features=160, out_features=320, bias=False)
              (2): Linear(in_features=8, out_features=320, bias=False)
            )
          )
          (fc_2): TensorizedLinear_module(
            (tt_cores): ModuleList(
              (0): Linear(in_features=320, out_features=8, bias=False)
              (1): Linear(in_features=320, out_features=160, bias=False)
              (2): Linear(in_features=12, out_features=240, bias=False)
            )
          )
          (relu): GELU(approximate='none')
          (layer_norm): LayerNorm((768,), eps=1e-12, elementwise_affine=True)
          (dropout): Dropout(p=0.1, inplace=False)
        )
      )
    )
    (layer_norm): LayerNorm((768,), eps=1e-12, elementwise_affine=True)
  )
  (preclassifier): TensorizedLinear_module(
    (tt_cores): ModuleList(
      (0): Linear(in_features=240, out_features=8, bias=False)
      (1): Linear(in_features=160, out_features=160, bias=False)
      (2): Linear(in_features=8, out_features=240, bias=False)
    )
  )
  (slot_preclassifier): TensorizedLinear_module(
    (tt_cores): ModuleList(
      (0): Linear(in_features=240, out_features=8, bias=False)
      (1): Linear(in_features=160, out_features=160, bias=False)
      (2): Linear(in_features=8, out_features=240, bias=False)
    )
  )
  (classifier): Sequential(
    (0): TensorizedLinear_module(
      (tt_cores): ModuleList(
        (0): Linear(in_features=240, out_features=8, bias=False)
        (1): Linear(in_features=160, out_features=160, bias=False)
        (2): Linear(in_features=8, out_features=240, bias=False)
      )
    )
    (1): Tanh()
    (2): Dropout(p=0.1, inplace=False)
    (3): Linear(in_features=768, out_features=22, bias=True)
  )
  (slot_classifier): Sequential(
    (0): TensorizedLinear_module(
      (tt_cores): ModuleList(
        (0): Linear(in_features=240, out_features=8, bias=False)
        (1): Linear(in_features=160, out_features=160, bias=False)
        (2): Linear(in_features=8, out_features=240, bias=False)
      )
    )
    (1): GELU(approximate='none')
    (2): LayerNorm((768,), eps=1e-05, elementwise_affine=True)
    (3): Linear(in_features=768, out_features=121, bias=True)
  )
)
0
=> config.summary_dir:    ./runs/pruning/ATIS/ATIS_GraSP_prune_ratio_90/run_None/summary/
=> config.checkpoint_dir: ./runs/pruning/ATIS/ATIS_GraSP_prune_ratio_90/run_None/checkpoint/
[38;21m2023-02-24 10:27:14,608 - tensor_train.py[line:137] - INFO: {'exp_name': 'ATIS_GraSP_prune_ratio_90', 'network': 'attn', 'depth': 2, 'dataset': 'ATIS', 'ba
…
