Namespace(batch_size=64, config='configs/ATIS/GraSP/SCD.yml', d_inner_hid=2048, d_k=64, d_model=768, d_v=64, dropout=0.1, embs_share_weight=False, epoch=100, label_smoothing=True, log=None, n_head=8, n_layers=6, n_warmup_steps=40000, no_cuda=False, ops_idx=None, precondition=0, proj_share_weight=True, quantized=1, save_mode='best', save_model=None, src_vocab_size=19213, tensorized=0, tgt_vocab_size=10839, uncompressed=0)
Transformer_sentence_concat_SLU(
  (encoder): Encoder(
    (src_word_emb): Embedding(800, 768)
    (position_enc): Embedding(512, 768)
    (token_type_emb): Embedding(2, 768)
    (dropout): Dropout(p=0.1, inplace=False)
    (layer_stack): ModuleList(
      (0): EncoderLayer(
        (slf_attn): MultiHeadAttention(
          (w_qs): Linear(in_features=768, out_features=768, bias=True)
          (w_ks): Linear(in_features=768, out_features=768, bias=True)
          (w_vs): Linear(in_features=768, out_features=768, bias=True)
          (fc): Linear(in_features=768, out_features=768, bias=True)
          (attention): ScaledDotProductAttention(
            (dropout): Dropout(p=0.1, inplace=False)
          )
          (dropout): Dropout(p=0.1, inplace=False)
          (layer_norm): LayerNorm((768,), eps=1e-06, elementwise_affine=True)
        )
        (pos_ffn): PositionwiseFeedForward(
          (w_1): Linear(in_features=768, out_features=3072, bias=True)
          (w_2): Linear(in_features=3072, out_features=768, bias=True)
          (layer_norm): LayerNorm((768,), eps=1e-06, elementwise_affine=True)
          (dropout): Dropout(p=0.1, inplace=False)
          (relu): GELU(approximate='none')
        )
      )
      (1): EncoderLayer(
        (slf_attn): MultiHeadAttention(
          (w_qs): Linear(in_features=768, out_features=768, bias=True)
          (w_ks): Linear(in_features=768, out_features=768, bias=True)
          (w_vs): Linear(in_features=768, out_features=768, bias=True)
          (fc): Linear(in_features=768, out_features=768, bias=True)
          (attention): ScaledDotProductAttention(
            (dropout): Dropout(p=0.1, inplace=False)
          )
          (dropout): Dropout(p=0.1, inplace=False)
          (layer_norm): LayerNorm((768,), eps=1e-06, elementwise_affine=True)
        )
        (pos_ffn): PositionwiseFeedForward(
          (w_1): Linear(in_features=768, out_features=3072, bias=True)
          (w_2): Linear(in_features=3072, out_features=768, bias=True)
          (layer_norm): LayerNorm((768,), eps=1e-06, elementwise_affine=True)
          (dropout): Dropout(p=0.1, inplace=False)
          (relu): GELU(approximate='none')
        )
      )
    )
    (layer_norm): LayerNorm((768,), eps=1e-12, elementwise_affine=True)
  )
  (preclassifier): Linear(in_features=768, out_features=768, bias=True)
  (slot_preclassifier): Linear(in_features=768, out_features=768, bias=True)
  (classifier): Sequential(
    (0): Linear(in_features=768, out_features=768, bias=True)
    (1): Tanh()
    (2): Dropout(p=0.1, inplace=False)
    (3): Linear(in_features=768, out_features=22, bias=True)
  )
  (slot_classifier): Sequential(
    (0): Linear(in_features=768, out_features=768, bias=True)
    (1): GELU(approximate='none')
    (2): LayerNorm((768,), eps=1e-05, elementwise_affine=True)
    (3): Linear(in_features=768, out_features=121, bias=True)
  )
)
0
=> config.summary_dir:    ./runs/pruning/ATIS/attn/ZO_SCD_mask/ATIS_GraSP_SCD_95_incre/run_None/summary/
=> config.checkpoint_dir: ./runs/pruning/ATIS/attn/ZO_SCD_mask/ATIS_GraSP_SCD_95_incre/run_None/checkpoint/
{'Total': 16479119, 'Trainable': 16479119}
{'encoder.layer_stack.0.slf_attn.w_qs': {'weight': tensor([  1680,   1883,   1997,  ..., 5
…
